…
gger': 'False', 'env': '<stable_baselines3.common.vec_env.subproc_vec_env.SubprocVecEnv object at 0x000001C63A9EECE0>', '_vec_normalize_env': 'None', 'observation_space': 'Box(0.0, 1.0, (86,), float32)', 'action_space': 'Discrete(87)', 'rollout_buffer_class': "<class 'sb3_contrib.common.maskable.buffers.MaskableRolloutBuffer'>", 'rollout_buffer_kwargs': '{}', 'clip_range_vf': 'None', 'target_kl': 'None', 'lr_schedule': 'FloatSchedule(ConstantSchedule(val=0.0003))', 'policy': 'MaskableActorCriticPolicy(\n  (features_extractor): YubisumaFeaturesExtractor(\n    (shared_net): Sequential(\n      (0): Linear(in_features=86, out_features=512, bias=True)\n      (1): ReLU()\n      (2): LayerNorm((512,), eps=1e-05, elementwise_affine=True)\n      (3): Linear(in_features=512, out_features=384, bias=True)\n      (4): ReLU()\n      (5): LayerNorm((384,), eps=1e-05, elementwise_affine=True)\n      (6): Linear(in_features=384, out_features=256, bias=True)\n      (7): ReLU()\n      (8): LayerNorm((256,), eps=1e-05, elementwise_affine=True)\n    )\n    (aux_reaction_head): Sequential(\n      (0): Linear(in_features=256, out_features=128, bias=True)\n      (1): ReLU()\n      (2): Linear(in_features=128, out_features=64, bias=True)\n      (3): ReLU()\n      (4): Linear(in_features=64, out_features=3, bias=True)\n    )\n    (aux_thumbs_head): Sequential(\n      (0): Linear(in_features=256, out_features=128, bias=True)\n      (1): ReLU()\n      (2): Linear(in_features=128, out_features=64, bias=True)\n      (3): ReLU()\n      (4): Linear(in_features=64, out_features=3, bias=True)\n    )\n    (aux_skill_head): Sequential(\n      (0): Linear(in_features=256, out_features=128, bias=True)\n      (1): ReLU()\n      (2): Linear(in_features=128, out_features=64, bias=True)\n      (3): ReLU()\n      (4): Linear(in_features=64, out_features=26, bias=True)\n    )\n  )\n  (pi_features_extractor): YubisumaFeaturesExtractor(\n    (shared_net): Sequential(\n      (0): Linear(in_features=86, out_features=512, bias=True)\n      (1): ReLU()\n      (2): LayerNorm((512,), eps=1e-05, elementwise_affine=True)\n      (3): Linear(in_features=512, out_features=384, bias=True)\n      (4): ReLU()\n      (5): LayerNorm((384,), eps=1e-05, elementwise_affine=True)\n      (6): Linear(in_features=384, out_features=256, bias=True)\n      (7): ReLU()\n      (8): LayerNorm((256,), eps=1e-05, elementwise_affine=True)\n    )\n    (aux_reaction_head): Sequential(\n      (0): Linear(in_features=256, out_features=128, bias=True)\n      (1): ReLU()\n      (2): Linear(in_features=128, out_features=64, bias=True)\n      (3): ReLU()\n      (4): Linear(in_features=64, out_features=3, bias=True)\n    )\n    (aux_thumbs_head): Sequential(\n      (0): Linear(in_features=256, out_features=128, bias=True)\n      (1): ReLU()\n      (2): Linear(in_features=128, out_features=64, bias=True)\n      (3): ReLU()\n      (4): Linear(in_features=64, out_features=3, bias=True)\n    )\n    (aux_skill_head): Sequential(\n      (0): Linear(in_features=256, out_features=128, bias=True)\n      (1): ReLU()\n      (2): Linear(in_features=128, out_features=64, bias=True)\n      (3): ReLU()\n      (4): Linear(in_features=64, out_features=26, bias=True)\n    )\n  )\n  (vf_features_extractor): YubisumaFeaturesExtractor(\n    (shared_net): Sequential(\n      (0): Linear(in_features=86, out_features=512, bias=True)\n      (1): ReLU()\n      (2): LayerNorm((512,), eps=1e-05, elementwise_affine=True)\n      (3): Linear(in_features=512, out_features=384, bias=True)\n      (4): ReLU()\n      (5): LayerNorm((384,), eps=1e-05, elementwise_affine=True)\n      (6): Linear(in_features=384, out_features=256, bias=True)\n      (7): ReLU()\n      (8): LayerNorm((256,), eps=1e-05, elementwise_affine=True)\n    )\n    (aux_reaction_head): Sequential(\n      (0): Linear(in_features=256, out_features=128, bias=True)\n      (1): ReLU()\n      (2): Linear(in_features=128, out_features=64, bias=True)\n      (3): ReLU()\n      (4): Linear(in_features=64, out_features=3, bias=True)\n    )\n    (aux_thumbs_head): Sequential(\n      (0): Linear(in_features=256, out_features=128, bias=True)\n      (1): ReLU()\n      (2): Linear(in_features=128, out_features=64, bias=True)\n      (3): ReLU()\n      (4): Linear(in_features=64, out_features=3, bias=True)\n    )\n    (aux_skill_head): Sequential(\n      (0): Linear(in_features=256, out_features=128, bias=True)\n      (1): ReLU()\n      (2): Linear(in_features=128, out_features=64, bias=True)\n      (3): ReLU()\n      (4): Linear(in_features=64, out_features=26, bias=True)\n    )\n  )\n  (mlp_extractor): MlpExtractor(\n    (policy_net): Sequential(\n      (0): Linear(in_features=256, out_features=256, bias=True)\n      (1): ReLU()\n      (2): Linear(in_features=256, out_features=128, bias=True)\n      (3): ReLU()\n    )\n    (value_net): Sequential(\n      (0): Linear(in_features=256, out_features=256, bias=True)\n      (1): ReLU()\n      (2): Linear(in_features=256, out_features=128, bias=True)\n      (3): ReLU()\n    )\n  )\n  (action_net): Linear(in_features=128, out_features=87, bias=True)\n  (value_net): Linear(in_features=128, out_features=1, bias=True)\n)', 'rollout_buffer': '<sb3_contrib.common.maskable.buffers.MaskableRolloutBuffer object at 0x000001C6529FD060>', '_logger': '<stable_baselines3.common.logger.Logger object at 0x000001C653BEBFD0>'}
2026-05-14 10:08:52,632 INFO    MainThread:33764 [wandb_run.py:_finish():2295] finishing run miyama-none/yubisuma-ppo/9vpcqxee
2026-05-14 10:08:52,633 INFO    MainThread:33764 [wandb_run.py:_atexit_cleanup():2494] got exitcode: 0
…
