…
    value: 0.5
n_envs:
    value: 4
n_epochs:
    value: 10
n_steps:
    value: 2048
network:
    value:
        aux_layers:
            - 128
            - 64
        feature_dim: 256
        policy_layers:
            - 256
            - 128
        value_layers:
            - 256
            - 128
normalize_advantage:
    value: true
num_timesteps:
    value: 133776
observation_space:
    value: Box(0.0, 1.0, (85,), float32)
policy:
    value: |-
        MaskableActorCriticPolicy(
          (features_extractor): YubisumaFeaturesExtractor(
            (shared_net): Sequential(
              (0): Linear(in_features=85, out_features=512, bias=True)
              (1): ReLU()
              (2): LayerNorm((512,), eps=1e-05, elementwise_affine=True)
              (3): Linear(in_features=512, out_features=384, bias=True)
              (4): ReLU()
              (5): LayerNorm((384,), eps=1e-05, elementwise_affine=True)
              (6): Linear(in_features=384, out_features=256, bias=True)
              (7): ReLU()
              (8): LayerNorm((256,), eps=1e-05, elementwise_affine=True)
            )
            (aux_reaction_head): Sequential(
              (0): Linear(in_features=256, out_features=128, bias=True)
              (1): ReLU()
              (2): Linear(in_features=128, out_features=64, bias=True)
              (3): ReLU()
              (4): Linear(in_features=64, out_features=3, bias=True)
            )
            (aux_thumbs_head): Sequential(
              (0): Linear(in_features=256, out_features=128, bias=True)
              (1): ReLU()
              (2): Linear(in_features=128, out_features=64, bias=True)
              (3): ReLU()
              (4): Linear(in_features=64, out_features=3, bias=True)
            )
            (aux_skill_head): Sequential(
              (0): Linear(in_features=256, out_features=128, bias=True)
              (1): ReLU()
              (2): Linear(in_features=128, out_features=64, bias=True)
              (3): ReLU()
              (4): Linear(in_features=64, out_features=26, bias=True)
            )
          )
          (pi_features_extractor): YubisumaFeaturesExtractor(
            (shared_net): Sequential(
              (0): Linear(in_features=85, out_features=512, bias=True)
              (1): ReLU()
              (2): LayerNorm((512,), eps=1e-05, elementwise_affine=True)
              (3): Linear(in_features=512, out_features=384, bias=True)
              (4): ReLU()
              (5): LayerNorm((384,), eps=1e-05, elementwise_affine=True)
              (6): Linear(in_features=384, out_features=256, bias=True)
              (7): ReLU()
              (8): LayerNorm((256,), eps=1e-05, elementwise_affine=True)
            )
            (aux_reaction_head): Sequential(
              (0): Linear(in_features=256, out_features=128, bias=True)
              (1): ReLU()
              (2): Linear(in_features=128, out_features=64, bias=True)
              (3): ReLU()
              (4): Linear(in_features=64, out_features=3, bias=True)
            )
            (aux_thumbs_head): Sequential(
              (0): Linear(in_features=256, out_features=128, bias=True)
              (1): ReLU()
              (2): Linear(in_features=128, out_features=64, bias=True)
              (3): ReLU()
              (4): Linear(in_features=64, out_features=3, bias=True)
            )
            (aux_skill_head): Sequential(
              (0): Linear(in_features=256, out_features=128, bias=True)
              (1): ReLU()
              (2): Linear(in_features=128, out_features=64, bias=True)
              (3): ReLU()
              (4): Linear(in_features=64, out_features=26, bias=True)
            )
          )
          (vf_features_extractor): YubisumaFeaturesExtractor(
            (shared_net): Sequential(
              (0): Linear(in_features=85, out_features=512, bias=True)
              (1): ReLU()
              (2): LayerNorm((512,), eps=1e-05, elementwise_affine=True)
              (3): Linear(in_features=512, out_features=384, bias=True)
              (4): ReLU()
              (5): LayerNorm((384,), eps=1e-05, elementwise_affine=True)
              (6): Linear(in_features=384, out_features=256, bias=True)
              (7): ReLU()
              (8): LayerNorm((256,), eps=1e-05, elementwise_affine=True)
            )
            (aux_reaction_head): Sequential(
              (0): Linear(in_features=256, out_features=128, bias=True)
              (1): ReLU()
              (2): Linear(in_features=128, out_features=64, bias=True)
              (3): ReLU()
              (4): Linear(in_features=64, out_features=3, bias=True)
            )
            (aux_thumbs_head): Sequential(
              (0): Linear(in_features=256, out_features=128, bias=True)
              (1): ReLU()
              (2): Linear(in_features=128, out_features=64, bias=True)
              (3): ReLU()
              (4): Linear(in_features=64, out_features=3, bias=True)
            )
            (aux_skill_head): Sequential(
              (0): Linear(in_features=256, out_features=128, bias=True)
              (1): ReLU()
              (2): Linear(in_features=128, out_features=64, bias=True)
              (3): ReLU()
              (4): Linear(in_features=64, out_features=26, bias=True)
            )
          )
          (mlp_extractor): MlpExtractor(
            (policy_net): Sequential(
              (0): Linear(in_features=256, out_features=256, bias=True)
              (1): ReLU()
              (2): Linear(in_features=256, out_features=128, bias=True)
              (3): ReLU()
            )
            (value_net): Sequential(
              (0): Linear(in_features=256, out_features=256, bias=True)
              (1): ReLU()
              (2): Linear(in_features=256, out_features=128, bias=True)
              (3): ReLU()
            )
          )
          (action_net): Linear(in_features=128, out_features=87, bias=True)
          (value_net): Linear(in_features=128, out_features=1, bias=True)
        )
policy_class:
    value: <class 'sb3_contrib.common.maskable.policies.MaskableActorCriticPolicy'>
policy_kwargs:
    value: '{''features_extractor_class'': <class ''rl.network.YubisumaFeaturesExtractor''>, ''features_extractor_kwargs'': {''features_dim'': 256}, ''net_arch'': {''pi'': [256, 128], ''vf'': [256, 128]}, ''activation_fn'': <class ''torch.nn.modules.activation.ReLU''>}'
…
